Artificial-Neural-Networks/model.pth (torch, 41576 bytes, 8 tensors)

weight f4 [64, 8]
000000 f6 fd 85 be 9b de 4e 3e 95 8a dc bd 50 e3 43 3d
       -0.2617032 0.20202105 -0.1076862 0.047824204
000010 22 d0 c8 3d 26 ee 1f be 25 f0 4c 3e f7 2a a2 be
       0.09805323 -0.1561819 0.20013483 -0.31673405
000020 48 bd 92 be 09 c7 c7 3d 04 6d 00 be 1a 98 cf 3d
       -0.28660035 0.0975476 -0.12541586 0.10136433
000030 b4 15 da bd be d9 31 be ed 1e 95 3e b5 51 7e be
       -0.10648671 -0.17368218 0.29125157 -0.24835856
000040 2c 78 1f be fe e6 07 3f 2e de 4d 3e cb ae 33 be
       -0.15573186 0.5308684 0.20104286 -0.17547147
000050 e8 0a 33 3e 90 54 37 be 2c d1 93 3e 88 d9 8a 3b
       0.17484629 -0.17903352 0.28870523 0.0042373575
000060 59 e5 6b 3f 55 83 8b 3e a6 03 21 bf 06 b1 18 bd
       0.9214683 0.27248636 -0.6289619 -0.037278198
000070 e2 af 45 3e f4 74 a3 3e d8 c3 05 3e 88 2e 47 be
       0.19305375 0.31925166 0.1306299 -0.19451344
000080 73 06 1a be 54 91 66 be 97 81 60 3e 51 77 5c bc
       -0.15041523 -0.22516376 0.21924435 -0.013456182
000090 32 6f 91 be 11 a5 3b bc ee 7f 1c 3c 68 4b 93 be
       -0.28405148 -0.011452929 0.009551985 -0.28768468
0000a0 15 86 a0 3c 9b d5 5d be 2f 41 47 be 34 6e 98 3e
       0.019595185 -0.21663515 -0.1945846 0.29771578
0000b0 05 48 07 3d 36 f3 85 3d 4c a6 91 bd 09 4c 47 3e
       0.033027668 0.065405294 -0.07111797 0.19462599
0000c0 97 b8 72 3e 13 52 b4 be 00 b8 3c bd c0 33 25 3d
       0.23703228 -0.35218868 -0.046073914 0.040332556
0000d0 f0 c8 be bc b4 47 33 be 0e fc 06 be 4f 18 16 bc
       -0.023289174 -0.17507821 -0.13182089 -0.009161069
0000e0 bd 09 8d 3e 4e e6 9f be e7 79 0c be 5f 11 d8 3d
       0.27546492 -0.31230396 -0.13718377 0.10550188
0000f0 c9 bf 33 be d4 c6 8a bd fa 6b 92 be a3 ad 85 be
       -0.17553629 -0.06776205 -0.28598005 -0.26109037
000100 92 39 80 3e 39 ca a9 be 0d 06 15 be 5c b9 c5 3e
       0.25043923 -0.33162096 -0.1455309 0.3861798
000110 ba 87 eb 3c 41 73 43 be b7 f0 93 bd b2 c2 b7 3e
       0.028751243 -0.19086935 -0.07223647 0.35890728
000120 65 23 84 3d 16 60 28 3e 59 02 5e be 3e 0b e9 bd
       0.064520635 0.16442904 -0.21680583 -0.113790974
000130 4e 3d 4b be 89 71 9a ba 24 2f d3 bd b4 5e ff bc
       -0.19847605 -0.0011783104 -0.10311726 -0.031173088
000140 c9 6e 13 3e 80 4d 8c 3e 45 3e cf bc bc de f1 bd
       0.1439773 0.27402878 -0.025298247 -0.11810061
000150 37 7f 75 bb 02 60 86 3e f0 00 3b 3e 76 6c 9a be
       -0.003745986 0.26245123 0.18262076 -0.30160874
000160 34 39 bd 3e db 83 a3 3d be f8 88 be a6 38 45 be
       0.36957705 0.07984134 -0.26752275 -0.19259891
000170 56 1f 10 be 1b da 5d 3e 1b 10 6a 3e 90 87 45 3e
       -0.14074454 0.21665232 0.22857706 0.19289994
000180 fe 0c b7 3e 92 cf 89 be b5 d6 61 be 68 6b b3 3e
       0.357521 -0.26916176 -0.2205456 0.35042882
000190 9a 58 7a bc 3f fc d2 3e 7e 32 c9 be b4 ea 87 be
       -0.015279913 0.41208073 -0.39296335 -0.26546252
0001a0 95 c7 c8 3d 93 15 93 bd b9 8f 8b 3e 0c 10 89 be
       0.09803692 -0.07181849 0.2725809 -0.26770055
0001b0 b0 93 1e be e2 a2 a0 be 6e fa bb be 95 44 9d 3e
       -0.15486026 -0.3137427 -0.367145 0.30716386
0001c0 4e b7 ff 3e 10 8f 58 bd f1 37 96 be e6 18 fc 3d
       0.49944538 -0.05287081 -0.29339555 0.123094365
0001d0 b5 2a 1a 3e 0e 34 8c be 9d c0 fe bd 11 fc da 3e
       0.15055354 -0.27383465 -0.12439082 0.42770436
0001e0 31 42 a5 be 6e f3 74 be 74 e4 7c be 39 95 95 be
       -0.32277063 -0.23920986 -0.24696523 -0.2921541
0001f0 f0 ee cd 3d ba 39 3f 3e b0 b2 86 bd 4b 2a 74 be
       0.10055339 0.18674365 -0.06577051 -0.23844258
000200 fa 4d 2b 3e d3 83 9e 3e dd 49 ca bd 64 64 2c bd
       0.16728964 0.3095995 -0.098773696 -0.042087927
000210 64 98 b4 be 52 d8 9b bd e4 5d 1b bd 41 b1 a7 3d
       -0.35272515 -0.07609619 -0.037931338 0.081881054
000220 4a 7c b8 3e b2 b4 b7 3e 92 e1 a3 bd 01 f4 18 3d
       0.36032325 0.35880047 -0.080020085 0.037342075
000230 af e5 9f be 94 c4 0c bc ba f7 b6 be 62 e2 d2 3e
       -0.31229922 -0.00859179 -0.35735875 0.4118834
000240 74 ce 8b 3c 05 63 c9 be 78 17 8c be 51 0c e7 3e
       0.017066218 -0.39333358 -0.27361655 0.45126584
000250 64 a4 9a 3c bb 44 a5 3e fc c9 21 3e de b1 19 3d
       0.018877216 0.32279 0.15799707 0.037523143
000260 b0 6d e7 be 98 87 f4 be cb 91 e1 3e 55 a5 3e 3e
       -0.45200872 -0.477597 0.44056544 0.18617757
000270 14 07 34 3e 32 82 00 3e 34 5e ba 3e 5f 49 47 3e
       0.17580825 0.12549666 0.36399996 0.19461583
000280 a2 b9 00 3f 40 02 b3 bb 1e 7f 53 3d 2f b2 cc 3e
       0.50283253 -0.0054629147 0.0516349 0.39979693
000290 f8 c6 39 be d7 27 0c bc cc 81 24 3e dd a1 a6 3e
       -0.18142307 -0.00855442 0.16065139 0.32545367
0002a0 1d f9 06 be a9 97 5a 3e a1 ce 2e bd e0 f4 75 be
       -0.13180967 0.21346916 -0.042677525 -0.24019194
0002b0 8b 0b b8 3c 54 7b c1 3e 8a 23 25 3e ef 55 39 be
       0.022466442 0.37789404 0.16126838 -0.18099187
0002c0 e5 2e dc be 22 70 83 be 89 cd e3 3e 97 28 8c 3e
       -0.43004528 -0.25671488 0.44492748 0.27374718
0002d0 28 5f a3 3e 41 25 54 be 2b 5c 47 bd 61 87 1b be
       0.31908536 -0.20717336 -0.048671883 -0.15188362
0002e0 11 2c e9 3d 9d 0f 01 3f 60 c3 d7 bd 09 3c b2 bd
       0.11385358 0.5041445 -0.10535312 -0.08702857
0002f0 9d d4 27 3e 5c 3f ad 3c 52 d7 7e bd e0 67 a7 bd
       0.163897 0.021148376 -0.062217064 -0.081741095
000300 16 c9 be bd cb 70 29 3d b1 32 01 be 47 5f 29 3f
       -0.09315698 0.041367333 -0.12616993 0.66161007
000310 ac f9 01 be 47 e3 7f 3e 99 a8 e5 be 42 8f 0e 3e
       -0.12692899 0.24989043 -0.44855192 0.13921836
000320 7e 54 dd 3e dc 47 b7 3e 62 fe 28 3d ef ad d7 3e
       0.43228525 0.35797012 0.041258223 0.42124888
000330 25 a1 a5 3d 07 c0 3d be 3d 9b 70 3d 4f ea b1 3e
       0.080873765 -0.18530284 0.058741797 0.34749076
000340 0f c4 88 be e5 bb 21 3d 0d ed 5c 3c 85 ec ab be
       -0.2671208 0.03948583 0.013484252 -0.33578888
000350 02 6b d5 3c 53 df cd 3c 66 4a 77 3c 2a 07 56 be
       0.026052002 0.025130903 0.015093422 -0.2090117
000360 bf 58 29 3f a7 52 1b bf aa 81 bd be 73 0d 05 3f
       0.6615104 -0.6067299 -0.37012988 0.51973647
000370 cf bb f1 3e ab 13 83 3e 7f c9 a2 3e 5f a6 25 3e
       0.472136 0.25600943 0.31794354 0.16176747
000380 3b 3e a7 3e 02 45 68 3e 3f 09 2b be 2f 89 93 be
       0.32664666 0.22682574 -0.16702746 -0.288156
000390 39 4c 68 be e3 c4 94 be 79 9f b7 3d 7d 64 bf 3e
       -0.22685327 -0.29056463 0.08965964 0.37381354
0003a0 f7 e5 28 be a4 96 f6 3b 3c ca 85 3e 14 09 bd 3d
       -0.16493975 0.007525282 0.26130855 0.09230247
0003b0 59 6a cd 3e 99 a1 0a 3e 35 17 99 bc 79 b7 87 bd
       0.401202 0.13538207 -0.018687824 -0.066267915
0003c0 f1 55 1f be f8 c7 75 bd e9 06 7b 3e 84 0c e5 bd
       -0.15560128 -0.06000516 0.24514355 -0.11184028
0003d0 50 22 a3 3e ac 9e 4c be 19 ec ca 3e 71 7a 61 3d
       0.31862116 -0.19982404 0.39633253 0.05504841
0003e0 73 86 85 be bc 09 db bd 0d 39 1a 3d e8 28 70 3e
       -0.2607914 -0.10695216 0.037652064 0.23453104
0003f0 9f 89 8c 3e b4 33 99 be d0 67 aa bc f6 4c 33 be
       0.27448747 -0.2992226 -0.020801455 -0.17509827

bias f4 [64]
000000 9d bd 5d 3c ce f1 c1 bd ad ae 1e 3e 70 60 ae 3e
       0.013533977 -0.09469949 0.15496321 0.3405795
000010 08 6e 5f be 9c f4 88 bd 3b 6b 69 be d0 04 0d be
       -0.21819317 -0.066872805 -0.22794811 -0.13771367
000020 9b 23 5d be c8 31 01 be 35 f0 02 be 8f 09 70 be
       -0.21595614 -0.12616646 -0.12786944 -0.23441146
000030 57 fb 07 be f1 cf e8 bd 0b c7 b8 3e 42 85 dd bd
       -0.13279472 -0.11367787 0.36089358 -0.108164325
000040 0f df 59 be f3 06 41 be 57 40 8a 3e c6 55 7f bb
       -0.21276496 -0.18850307 0.27002212 -0.0038961037
000050 69 dc 0e 3e 62 ce ca bd 93 24 b7 3e b6 e0 c0 bc
       0.13951267 -0.09902646 0.3577009 -0.02354465
000060 84 f8 5b 3e d2 a6 60 3d 8d b4 84 3e 10 f7 ca 3d
       0.2148152 0.054846592 0.25919 0.09910405
000070 10 a9 66 bd 98 55 7f 3e 25 51 74 be 56 be 93 be
       -0.056313574 0.24934995 -0.23859079 -0.28856152
000080 8a 73 91 3e e5 cc 49 bd 2a 85 98 3e fa 0e ed 3e
       0.28408462 -0.04926767 0.29789096 0.4630049
000090 1d fd e9 b9 ac c8 ac be ea 4a 8b be 45 21 44 3e
       -0.00044629807 -0.3374685 -0.27205592 0.19153316
0000a0 8b f9 30 bd 21 ed 6c be b4 46 4d 3e 3e dd b1 bd
       -0.043206733 -0.23137332 0.20046502 -0.08684777
0000b0 c4 3a 29 be ee 81 57 be c3 87 5d 3d ba e0 d4 3e
       -0.16526324 -0.21045658 0.05408455 0.41577703
0000c0 34 d2 b2 bc f9 07 cd bc 8a c3 f1 3e 4b b3 8c 3e
       -0.021828748 -0.025028216 0.47219497 0.2748054
0000d0 e8 d9 2d be 5e 02 1e 3e 13 ee 2f be 20 3b 25 be
       -0.16977656 0.1543059 -0.17180662 -0.16135836
0000e0 22 fc ae be ce 39 77 be b6 ba a7 3e 96 79 4d be
       -0.34176737 -0.24143144 0.32759637 -0.20065913
0000f0 54 22 f2 3c 61 58 dd 3e 24 65 b1 3e 0e 94 f0 3d
       0.029557385 0.4323149 0.34647477 0.11746989

weight f4 [64, 64]
000000 b4 64 16 3d 6c 6b a2 bd 85 92 99 bd 02 d7 c1 bd
       0.03671713 -0.07930645 -0.074986495 -0.094648376
000010 d4 9f 4b bd 20 c4 eb bc ea f9 b1 3d 88 48 f6 3d
       -0.04971297 -0.028780043 0.086902454 0.12025553
000020 ac 21 cc bd c6 46 a4 bd e8 18 97 3d f0 d5 5b 3d
       -0.0996736 -0.080213115 0.07377797 0.053670824
000030 90 b6 6b bc 09 e4 96 bd 58 ff e2 3d cc 08 42 3d
       -0.014386788 -0.07367713 0.11083859 0.04737167
000040 78 9f b3 3d c9 fc ca bd 70 e6 85 bd 5a 36 3e bd
       0.087706506 -0.09911496 -0.06538093 -0.046438552
000050 f2 6c 7e bd c8 d6 6b bd 77 68 28 3d ec 01 57 bd
       -0.062115617 -0.05757788 0.04111525 -0.052492067
000060 91 cb c1 bd 8f e9 fb bc c6 57 1b bd 6a f9 ea bd
       -0.09462655 -0.030751018 -0.037925504 -0.11473353
000070 d4 5a 4c 3d c6 23 5f bd 98 d0 fb bd 0a af 90 3d
       0.049891308 -0.054477476 -0.122956455 0.07064636
000080 12 8e 26 bd c0 bf 23 3b 28 10 98 3c 9a 04 88 bd
       -0.040662833 0.0024986118 0.018562391 -0.06641503
000090 39 74 49 3d b7 d4 28 bd 98 8f 10 3d 41 6e 6c 3d
       0.049183104 -0.041218486 0.03529319 0.057722334
0000a0 3b 68 44 bc 1e 03 e5 3d 95 05 ce bd d1 29 a7 3d
       -0.011987741 0.11182235 -0.100596584 0.08162273
0000b0 5b 30 78 3d 56 e4 b5 bb f0 b3 45 bc 97 82 d2 3c
       0.06059299 -0.0055509014 -0.012066826 0.025697036
0000c0 61 72 ce bd 03 b4 fc 3d 7f 4a 39 bd 60 4a 04 3c
       -0.1008041 0.12339022 -0.04523706 0.008074373
0000d0 f4 42 bb 3d 15 32 d0 3d fc fd 96 bd 9b 1e bb bd
       0.0914363 0.101658024 -0.073726624 -0.09136697
0000e0 a0 c6 fa 3d c8 8f a6 bd be 99 8e 3d 47 37 51 bd
       0.12244916 -0.08132893 0.06962918 -0.051078107
0000f0 bc 45 28 bd 8e b6 07 bd 5c 40 b4 3d b8 4e b9 bc
       -0.04108213 -0.033133082 0.08801338 -0.022620544
000100 04 5e ce 3d 0b 2e 1b bd 05 46 0d 3d b5 35 ae bd
       0.10076526 -0.037885707 0.034490604 -0.085063376
000110 d4 1d 9f 3d a1 cd f6 bb 8c 59 71 3d 80 6c b9 bd
       0.07769361 -0.007531837 0.05892329 -0.09053898
000120 fc f4 be bd 08 05 9e 3d e7 0c d9 3d 20 15 87 3d
       -0.09324071 0.077158034 0.10598164 0.06595826
000130 1f 33 ad 3d f4 fa b3 3d 43 b8 d8 bd a6 2b fd bd
       0.08457016 0.087881 -0.1058202 -0.12361841
000140 3e ab 7f bd 84 6a 5e bc 9c 28 6a 3c 96 24 03 bd
       -0.06241917 -0.0135752 0.014291909 -0.032017313
000150 83 e5 a4 bd 7a c6 e7 3d cb 4f b9 3d 4f 3e 92 3b
       -0.080515884 0.11317153 0.090484224 0.004462994
000160 1e 50 57 bd 99 5f e4 bd cb fe aa bd d5 6e 3d 3d
       -0.05256664 -0.11151046 -0.08349379 0.046248276
000170 91 5b bf bd df 51 5d 3d f0 d7 ff bb 23 28 72 39
       -0.09343637 0.054033156 -0.007807724 0.0002309387
000180 76 99 25 3c 07 88 d7 bd ea f5 fb 3d a0 0b 86 3d
       0.010107389 -0.10523992 0.12302764 0.06545186
000190 14 44 db 3d b6 7c b1 3d c8 33 e5 bb be fd 41 3c
       0.10706344 0.08666365 -0.006994698 0.011840282
0001a0 e5 c6 fb bd d4 3c bb bd 66 e5 dc 3c 01 be ef 3d
       -0.122937955 -0.091424614 0.026964854 0.11706162
0001b0 41 04 b9 bc 37 3d b1 3d 0b 1a 1f 3c 7f 38 4d 3d
       -0.022585036 0.08654254 0.009710799 0.050102707
0001c0 37 27 82 bd f5 40 9c 3d 5d 4f 22 bd 12 ad 6b 3d
       -0.06355136 0.07629577 -0.039626468 0.0575381
0001d0 54 3a 53 bd b6 b5 2c bd ac ab 7a 3d 54 a6 ab bd
       -0.051569298 -0.04216548 0.061198875 -0.08381334
0001e0 98 d4 b6 3d 1b 48 95 bc 92 11 6c 3c 87 22 c7 3c
       0.08927268 -0.01822286 0.014408486 0.024308456
0001f0 9b 8a e4 bd 18 17 26 bd f7 c2 0a bd 53 75 31 3c
       -0.111592494 -0.040549368 -0.03387734 0.010831195
000200 05 4c b4 bd 02 de 92 bc 7a 4f 2c 3d 53 a1 e1 bc
       -0.08803562 -0.017928127 0.042067982 -0.027542746
000210 1d 11 46 bc 8a fb 70 bc f8 ea b3 bd 94 7c 8a 3d
       -0.012089041 -0.014708409 -0.08785051 0.06762043
000220 65 53 ae 3d 51 3c b2 3d cc cc 82 3d 84 5f ae bd
       0.08512 0.08702911 0.06386718 -0.08514312
000230 c1 76 61 bb 07 1e ed bd 5b 96 93 3d e0 db 78 bc
       -0.0034403058 -0.11577993 0.072064124 -0.015189141
000240 ee dc 66 3d 77 da ac 3b 7b 2a a8 bd 1a f8 83 3d
       0.05636304 0.0052750665 -0.082112275 0.06443806
000250 a4 b7 2f bd e0 d9 36 bd f0 ec 09 3e 96 9d 03 be
       -0.042899743 -0.044641376 0.1346929 -0.12853083
000260 52 da 17 3e 37 38 ce 3d 78 f7 d6 bd ac 6b ae bd
       0.14829376 0.10069316 -0.1049642 -0.085166305
000270 3a 47 82 bc 16 4f a4 3d cf 29 ae 3d 36 5a af 3d
       -0.015903104 0.08022897 0.08504068 0.08562128
000280 cb e0 b1 3d 3b 16 bf bd ff dd e2 bd f1 21 9a bd
       0.08685454 -0.09330412 -0.11077499 -0.07526005
000290 1e 42 00 be 90 87 c9 bd 26 02 f1 bd 29 cc b0 3d
       -0.12525222 -0.098403096 -0.11767988 0.086326905
0002a0 37 4f df 3d 46 77 cd bb 06 f2 1b 3d 46 3b e3 3c
       0.10903781 -0.006270322 0.03807261 0.027738225
0002b0 a6 c9 dd b9 eb 7d ef bd 25 15 f4 bc 53 fb 61 3c
       -0.00042302645 -0.11693939 -0.029795239 0.0137928305
0002c0 91 03 e2 bd 81 a4 9b 3d 0f 6d 1b bd 05 cd f4 3d
       -0.110358365 0.07599736 -0.037945803 0.11953167
0002d0 06 7a 11 3b 9d 01 1a 3d 89 42 48 3d 13 7f 98 bc
       0.0022197976 0.037599195 0.048891578 -0.018615281
0002e0 c0 62 f1 bd 0c 51 a3 bd 78 b3 2e bd 5f 2f 5c 3d
       -0.11786413 -0.07974443 -0.042651623 0.053756114
0002f0 e5 cd 11 bd 18 7a 18 3d 14 87 9a bd bc 38 5f bd
       -0.035596747 0.037225813 -0.07545295 -0.054497465
000300 40 d2 79 3d eb 13 d3 3c d5 fe eb bc ea 0c 69 bd
       0.060991526 0.025766334 -0.028808037 -0.05689708
000310 50 08 11 3d db a4 eb 3d a8 84 19 bd a0 13 e5 bd
       0.035408318 0.11506053 -0.037480026 -0.11185384
000320 50 ef 87 bd 47 f2 c6 bd 6b ee c2 bd 35 a4 4e 3d
       -0.06637442 -0.097141795 -0.09518131 0.05044957
000330 92 e7 a3 bd c0 ac 01 be f3 34 ee 3c b4 a3 83 bd
       -0.08003153 -0.12663555 0.029077983 -0.06427708
000340 33 62 0d 3d 82 e6 e2 bd da 3b 41 bd ed 61 36 3d
       0.03451748 -0.11079122 -0.04717622 0.044526983
000350 79 79 33 3d 67 11 95 bc 4c e6 b3 bd ec af 83 bd
       0.043817017 -0.018196775 -0.0878416 -0.06430039
000360 03 a6 d3 bd c6 af c4 bd c1 91 9f 3d ff 22 81 3d
       -0.103343986 -0.096038386 0.07791472 0.06305503
000370 ac 83 43 3d 16 a9 92 bd 7f f9 c7 bd a0 f0 03 bc
       0.047732994 -0.07161157 -0.097643845 -0.008052975
000380 65 8b cb 3d 19 07 c1 3c 9b ed e0 3d b1 20 fe 3b
       0.09938697 0.023562955 0.1098282 0.007755362
000390 dc bd 8d bb e5 30 fa 3d 84 20 95 bd 0e d0 a0 3a
       -0.0043256115 0.12216357 -0.072815925 0.0012269036
0003a0 5e fa b3 3d 84 a0 5a 3d eb bf 48 3c 1f 1b 88 bc
       0.08787988 0.053375736 0.012252788 -0.016614495
0003b0 77 c1 8c 3c 6e 7b ba 3d db 17 e3 3d 52 a3 39 3d
       0.017182095 0.091055736 0.110885344 0.04532177
0003c0 af 59 c6 bc 4b b6 71 3d 3b 14 02 3e 9f 87 a4 3d
       -0.024212686 0.05901174 0.1270303 0.0803368
0003d0 ed 22 af 3d 48 f5 7d bd cf 9b 53 3d 7e c7 e4 bd
       0.085515834 -0.062001497 0.051662263 -0.111708626
0003e0 d0 ef d8 bc a0 9b 70 3d d1 e6 4d bd bb a2 58 bd
       -0.026481539 0.058742166 -0.05026895 -0.052889567
0003f0 e4 b8 7a 3d f9 77 20 bc c1 8f e4 3c a3 2e 55 3d
       0.06121148 -0.009794229 0.027900578 0.05204643

bias f4 [64]
000000 ad 2e a5 bd 10 06 b7 bd a5 4a b3 bd 52 09 cf bd
       -0.08065543 -0.08936703 -0.08754472 -0.101091996
000010 c2 f9 96 3c 59 02 e9 3c 3e 8a a5 bd ec 7b 88 bb
       0.01842964 0.028443502 -0.08083008 -0.0041651633
000020 c3 03 21 3d ad 6c 90 3c d1 1f 1a 3e 14 4a 46 3d
       0.039310228 0.017629946 0.150512 0.04841049
000030 89 4c 13 3c a8 d0 5d 3e d7 e3 fe 3d 89 47 0e 3e
       0.008990415 0.21661627 0.12445801 0.13894476
000040 2e 6e ed 3d 3d 89 22 3e a0 31 38 3e 51 fc 72 3c
       0.11593281 0.15872665 0.1798768 0.014830665
000050 83 6f 36 3d 88 0b 82 bd ec 6f ae bd 03 54 ce 3d
       0.04453994 -0.06349856 -0.08517441 0.10074618
000060 5a 8a 20 3e 29 64 a3 bd 70 57 20 bd 10 4e 42 3d
       0.15677777 -0.079780884 -0.039145887 0.047437727
000070 be ee 0e 3d ef 17 ab bb 60 18 34 3e 22 96 2c be
       0.03489565 -0.005221359 0.17587423 -0.16854146
000080 94 88 82 3c 74 ad 32 3d fc c0 5b bd f0 a7 ee 3c
       0.015934266 0.04362245 -0.05365084 0.029132813
000090 7d a2 d6 bd df a3 c2 3d e4 6d ae 3d 22 c4 fd 3b
       -0.10480211 0.09503912 0.08517054 0.007744328
0000a0 8c e0 15 3e 75 cd a1 bd d0 b8 4c 3d d2 7d 8d ba
       0.14636439 -0.07900516 0.04998094 -0.0010794944
0000b0 5a a7 5e 3d 5f 7b 86 3d b9 b2 d5 3d 31 b3 93 bd
       0.054358818 0.065665 0.10434479 -0.072119124
0000c0 87 63 ca 3d cd bb 14 3e 0c 07 20 bd ff 52 4b 3d
       0.098822646 0.14524765 -0.03906922 0.049639698
0000d0 e5 5b 85 3d 84 b8 97 bd ab cb d7 3c 49 ce ac 3a
       0.06511668 -0.074082404 0.026342234 0.0013184036
0000e0 93 75 97 3d 1d 25 7c 3d 99 c1 e9 bd 02 84 bc bb
       0.073954724 0.06155883 -0.11413879 -0.0057530412
0000f0 e8 65 e5 3d bf 69 00 3e 46 5b 08 3e 64 04 c2 bc
       0.11201078 0.12540339 0.13316068 -0.023683734

weight f4 [64, 64]
000000 86 bb 7d 3c e6 55 62 3d 70 26 0d 3e 37 11 75 bc
       0.015486604 0.0552577 0.13784194 -0.014957718
000010 bb 16 0a 3e 81 5e e9 bd 6d 41 07 bc 4f 2f 55 bd
       0.13485233 -0.11394978 -0.008255345 -0.05204707
000020 58 ae c6 bc a7 9d 9b 3b a9 11 22 3d fc 12 97 bc
       -0.024253055 0.0047490182 0.039567623 -0.01844167
000030 ad d4 48 3d 14 b4 8b 3e 00 33 2c 3e 80 67 92 3e
       0.04903095 0.27285826 0.1681633 0.2859459
000040 d8 e4 5b 3d 61 20 af 3d 5e 85 75 3c c8 db 79 3c
       0.05368504 0.08551098 0.0149854105 0.015250154
000050 22 e7 65 3d ef 1a e7 3c fd 09 80 3d 1e 92 54 3d
       0.05612863 0.028211085 0.06251905 0.05189716
000060 3c 96 37 be b3 16 99 3d f2 8f 93 3d 5c 60 19 3e
       -0.17928404 0.07475033 0.0720519 0.14978164
000070 38 b8 05 bd 16 5b bb 3d ad 04 57 be 48 97 d6 3d
       -0.032646388 0.09148233 -0.20997877 0.10478073
000080 4d 99 4d 3b ed 70 f8 3d e0 b2 98 bd 5d ac dc 3c
       0.0031371892 0.12130914 -0.07455993 0.026937658
000090 3a d5 e0 3d 13 96 a3 bd d8 fc b9 bd cd a0 c3 bd
       0.1097817 -0.07987609 -0.09081429 -0.09552155
0000a0 1e a8 93 bc f4 fe 6e 3d 3e 76 bc 3d 60 8a 00 3e
       -0.0180245 0.05834861 0.092022404 0.12552786
0000b0 33 c5 10 3d 3f 0e d6 3d 39 e9 8e 3d 21 20 c6 bd
       0.035344314 0.10451936 0.069780774 -0.09674097
0000c0 0d a5 98 bc 69 1c b9 bd 24 5a 26 3d 9a d6 10 be
       -0.01863339 -0.09038622 0.04061331 -0.14144364
0000d0 a2 3c 01 3e 60 4d 05 3e e2 be ae 3e 8f f7 69 bd
       0.12620786 0.13017797 0.34130007 -0.057120856
0000e0 b3 32 9e bd 74 16 ce 3d 3e cd 9c 3d cd 13 4d 3d
       -0.07724514 0.10062876 0.07656334 0.05006771
0000f0 88 cc f1 bc 83 aa ed bd 98 b5 68 3e 3d c3 89 bd
       -0.029516473 -0.11604788 0.22725523 -0.06726692
000100 e0 f3 a3 bd 74 53 ab bb 39 c5 6e 3d 6a 82 8f bd
       -0.080055 -0.0052284542 0.058293555 -0.070072964
000110 60 69 3f bc 2e bf a6 3c 3f ad 33 bd 0a 30 f2 3d
       -0.011682838 0.020354833 -0.043866392 0.11825569
000120 8f 85 a2 bd 8e ef 82 bc 81 ee c8 bd cf 4d fb 3d
       -0.079356305 -0.01598337 -0.09811116 0.122707
000130 11 c8 54 ba 24 85 1c bb 7d fe 1e 3d 20 bd 14 bd
       -0.00081169704 -0.002388307 0.038816918 -0.036313176
000140 c8 bc d1 bc ab c1 96 3d dd 67 19 3d 92 bd 2c bd
       -0.025602713 0.07361158 0.037452567 -0.042172976
000150 d6 5b bc bd f4 e5 e4 bb db d1 90 3d 11 c1 88 3d
       -0.09197204 -0.0069854204 0.07071277 0.066774495
000160 1f ae 4c bd 08 fb 16 3c a8 d2 f9 3c 93 c8 80 3b
       -0.049970742 0.009215124 0.030495957 0.0039301603
000170 52 53 66 3d a0 85 b0 bd a0 62 1e 3e 79 d6 87 3d
       0.056231804 -0.08619237 0.1546731 0.06632704
000180 63 af 02 3e 33 5c cc bd 08 20 d6 3c 8e 72 c7 3d
       0.12762217 -0.09978523 0.02613832 0.097386464
000190 98 90 56 bd e1 d4 46 bd cd 71 69 bc c6 c7 04 3e
       -0.05238399 -0.04854286 -0.014248324 0.12966833
0001a0 85 b9 0c 3d aa b9 ae 3d 9f 62 42 3d 30 e0 d5 3d
       0.034356613 0.08531506 0.047457334 0.10443151
0001b0 95 64 0f 3e be 40 95 bd cf 31 10 3e ab 02 a9 3d
       0.14003213 -0.07287739 0.140815 0.08252462
0001c0 0d cc a3 bd d6 c6 58 bd b0 d7 de bd 33 3e df 3d
       -0.07997904 -0.052924 -0.10880983 0.109005354
0001d0 b2 9a e8 bd 72 b3 82 bd 9c 42 c0 bd 98 25 67 bd
       -0.11357631 -0.06381883 -0.09387705 -0.056432337
0001e0 95 7a ba bd d4 f5 7a bd 09 7f 74 bc 80 ff 76 3d
       -0.09105412 -0.061269596 -0.014922866 0.060302258
0001f0 3c 7f 5d 3b e9 74 50 bd 3b 33 a4 3d 44 fa ac 3d
       0.0033797761 -0.050892744 0.08017584 0.08446172
000200 7c 3f e0 3d 96 78 c2 bd c2 e3 b5 bd c0 43 97 3d
       0.10949609 -0.09495656 -0.08881332 0.07385969
000210 8e df d2 bd 94 02 b5 bd 2c 24 2d 3d 99 62 bf bd
       -0.10296546 -0.08838382 0.042270824 -0.09344978
000220 48 73 d3 bc d8 8e 2d bd 7c 03 94 3d d9 86 f9 bd
       -0.025811806 -0.042372555 0.07227227 -0.12183923
000230 d5 e3 b7 3d 01 dc 95 bd 8c 35 cc 3c e2 7a 81 bd
       0.089790024 -0.07317353 0.024927877 -0.06322266
000240 0b 5c f7 3d 57 f5 f3 bc 19 71 6e bd ad 89 a2 3b
       0.12078103 -0.029780073 -0.058213327 0.00496026
000250 ee d7 c2 bd 78 e4 a6 bd 7c d8 2f bd 28 9c 46 3d
       -0.095138416 -0.08149046 -0.042931065 0.048488766
000260 a2 0c 2a 3d 44 8f 3f 3d ac 38 7a bd c5 a9 7a 3d
       0.041515954 0.046767488 -0.061089203 0.06119706
000270 3d c0 55 3d 85 67 e0 3d 6b 54 9d bd 40 50 eb 3d
       0.052185286 0.10957245 -0.07682117 0.11489916
000280 fa 95 ce 3c 85 56 bd bc c6 0c aa bd c0 c6 ee 3d
       0.025217999 -0.023112545 -0.083032176 0.11659002
000290 05 a6 54 bd 2e 40 b1 39 b2 37 e9 bd f3 83 93 3c
       -0.05191614 0.00033807888 -0.11387576 0.018007254
0002a0 b8 36 8e bc df 70 95 3d 14 79 2b bd ee 8b b9 bd
       -0.017360076 0.07296919 -0.041863516 -0.090598926
0002b0 a2 d3 e5 bd 71 9d d0 bd f0 fc b1 bd 66 89 81 3d
       -0.112220064 -0.101862796 -0.08690822 0.06325035
0002c0 85 73 99 bd f3 94 bf bd c0 13 71 3c 3e c5 ad 3d
       -0.07492737 -0.09354582 0.014714181 0.084848866
0002d0 58 2c 46 3d d4 ff cf bc 52 49 d9 b8 e3 d9 35 3c
       0.048382133 -0.025390543 -0.00010361023 0.0110993115
0002e0 45 23 4b 3d 1c ec 64 3d 60 3f 9b bd 0e 4e cb 3d
       0.049594183 0.055889234 -0.07580447 0.09926997
0002f0 7f f3 22 bc 35 7b cd 3d ab 92 c8 bd d6 59 20 bd
       -0.009945749 0.100332655 -0.097936 -0.039148174
000300 ac 62 9d bd 5f a6 a4 3d 9e e8 7f bd 80 31 58 3d
       -0.07684836 0.08039545 -0.0624777 0.052781582
000310 5a 6d db bd 2a 4b 1d bb 38 e1 cd bd 27 a8 b2 bd
       -0.107142165 -0.00240011 -0.10052723 -0.08723479
000320 a9 82 35 3d 2a b9 31 3d 3d 86 0b be bb b4 e3 3d
       0.04431406 0.043389477 -0.13625427 0.11118456
000330 fe 88 f3 bd 9a ee 95 bd 54 f4 11 be 1d 2b dd 3d
       -0.118913636 -0.073209 -0.1425336 0.10799239
000340 ce 65 f3 3d 20 26 15 3e 91 65 61 bd e7 e7 97 bd
       0.11884652 0.14565325 -0.055028502 -0.07417279
000350 c9 01 45 bd 51 4c b0 3d 9d b8 c1 3a 74 9c ca 3d
       -0.048097406 0.08608306 0.001477975 0.09893122
000360 21 46 00 3e dc 46 4b bd 4c 34 08 bd 5f f9 e2 bc
       0.12526752 -0.049628124 -0.033253 -0.0277068
000370 76 bb d3 3d 0e 2c a0 bd fa 45 9d 3e 94 ce 31 bd
       0.1033849 -0.07820903 0.3071745 -0.0434099
000380 b8 5f 1e 3e b5 e0 93 bd e0 72 ec 3c 0c 0d 8d bb
       0.15466201 -0.07220594 0.02886337 -0.004304534
000390 31 8d c4 3d d5 dd 83 3d fa b7 93 bc c8 12 15 3e
       0.095972426 0.064387955 -0.018032063 0.14557946
0003a0 4e 28 78 3e 94 3c f6 bb dd 60 3f bd f5 fc b0 3d
       0.24234125 -0.0075145457 -0.046723235 0.08641998
0003b0 82 6f 82 3e b3 09 fc 3d ab c8 53 3e 8f 2b 84 bd
       0.254757 0.123065375 0.20682018 -0.06453621
0003c0 82 ba 83 3e 3c 1b 84 bd 02 0d a3 3d b3 94 26 3e
       0.25728232 -0.06450507 0.079614654 0.16267662
0003d0 2a 6f ba bd f3 dc c1 bc 14 c7 83 be 20 61 fa 3c
       -0.09103234 -0.023664927 -0.25737822 0.030563891
0003e0 c0 31 92 3d ac 67 61 3d ee 14 1a 3d 94 29 8d bd
       0.07138395 0.05503051 0.037617616 -0.06892696
0003f0 72 0f b5 bd 64 6f ba bc ee d5 bf bc a6 b8 aa 3d
       -0.088408366 -0.022758193 -0.02341744 0.08336

bias f4 [64]
000000 8c c6 de 3d cc 01 b5 bd 45 90 f4 bd f4 ea a4 3e
       0.108777136 -0.08838233 -0.1194158 0.32210505
000010 8b aa cc bd 15 8b 02 3e d3 94 ef bd 7a 57 cd 3e
       -0.09993466 0.12748368 -0.11698308 0.40105802
000020 da 67 ce bd b3 b8 a2 3c 99 b9 aa bd 95 e1 b5 3d
       -0.10078402 0.019863462 -0.08336181 0.08880917
000030 c2 72 c8 3d 71 32 ab bd cf 33 00 be 90 44 f7 bd
       0.09787513 -0.0835923 -0.12519763 -0.12073624
000040 18 89 41 3e 11 f1 49 bb 99 77 8b bc 0e b1 15 3e
       0.18899953 -0.0030813853 -0.017024802 0.14618322
000050 87 56 9f 3d 1b 80 7e 3e 8b 96 a5 bd d6 35 21 3e
       0.07780176 0.24853556 -0.080853544 0.15743193
000060 c4 89 18 3e 9b 98 98 bd 76 0c 5c 3e 88 0d d9 bd
       0.14896303 -0.07450982 0.21489128 -0.10598284
000070 91 62 8f bd 42 26 77 bd b8 6e 8c 3e f3 91 f3 3c
       -0.07001222 -0.06033922 0.27428222 0.02973268
000080 3e 74 8a bc 9c 6c a6 bd 2f ff 6a bc 26 ba eb bd
       -0.016901132 -0.08126184 -0.014343067 -0.11510114
000090 0b 52 21 3e e9 24 b1 bd df c0 86 3e 53 27 f1 bd
       0.15753953 -0.08649618 0.26319024 -0.117750786
0000a0 c3 67 b8 3d 7e 85 d8 3d 1f 95 b6 3d 56 13 c4 bc
       0.09004166 0.105723366 0.08915161 -0.023935001
0000b0 cc b3 b7 3d 95 11 d8 bd a9 cb 3f bd f6 0f 57 3e
       0.089698404 -0.105502285 -0.046825085 0.21002182
0000c0 86 ba ce bd 9b cc 1a bd e0 35 a4 b8 e9 d0 11 bc
       -0.1009417 -0.037792783 -7.8301644e-05 -0.008899906
0000d0 8d 7c 9e 3d f5 02 c4 3d 59 ee 0e 3e c0 3e cd bc
       0.077386 0.095708765 0.1395811 -0.025054336
0000e0 2f 94 a1 bd 3f 89 2d 3e 50 ff f7 bc 44 a6 25 3d
       -0.07889592 0.16946886 -0.03027311 0.040441766
0000f0 58 ee c0 bc 49 a4 ae bd e4 b1 58 3e 0a 7c de 3d
       -0.023551151 -0.08527429 0.2116161 0.10863502

weight f4 [4, 64]
000000 be dd ce 3e ec d5 10 be 12 6f 14 bd 14 fb 1d bf
       0.4040355 -0.14144105 -0.036238737 -0.6171124
000010 30 2c fe bd ee ab e4 bd 2a 2f 47 3d 6b 54 25 bf
       -0.12410772 -0.111656055 0.048628964 -0.64581937
000020 85 8b 05 be 1c 01 00 be 57 99 b8 bd 05 be c9 be
       -0.13041504 -0.12500423 -0.09013622 -0.39402786
000030 b2 2a 2f 3d cf e9 9c 3d 39 60 e2 bd 23 74 01 3e
       0.042765327 0.07661783 -0.11053509 0.12641959
000040 0b 65 a4 be 75 95 37 3e 01 fe bc 3e 01 97 3d 3f
       -0.3210834 0.17928107 0.3691254 0.7405854
000050 aa b6 0c 3e 9a ac db be 34 cc a8 3c da 02 4d be
       0.13741556 -0.42905122 0.020605184 -0.20020619
000060 8b a0 98 3e 5f 22 9f bd 24 b5 81 be 68 81 29 bd
       0.29809985 -0.07770228 -0.25333512 -0.041383177
000070 9e c7 90 3d 8e b3 eb bd 21 5d 03 bf 1b bb fd 3e
       0.07069324 -0.11508857 -0.5131398 0.49556813
000080 1a b3 d7 3b d8 6e a4 bc 44 d2 a4 bd 53 2e 0c 3e
       0.00658263 -0.020072386 -0.080479175 0.13689546
000090 4d ec 59 3d f5 31 e3 3d 93 d9 17 bf 11 d2 41 3d
       0.05320387 0.11093513 -0.59316367 0.047319476
0000a0 55 cb c1 3e 4d 2d 9d 3e ab c4 16 3c fa 4f 82 3e
       0.37850443 0.30698624 0.009202163 0.25451642
0000b0 66 6f 64 3d 3d ea 6f 3c 5e 72 f0 3d d9 30 1a be
       0.0557703 0.014643249 0.11740564 -0.15057696
0000c0 44 3a 2d 3d a7 d3 eb 3d 19 2f cc bd ce 84 05 3e
       0.042291895 0.11514979 -0.09969921 0.13038942
0000d0 1f 4c 0e 3e 18 45 a3 3e ae 9a 38 3e 7c e6 10 3d
       0.13896225 0.31888652 0.18027756 0.035376057
0000e0 ac e6 b2 bd 6f 24 c6 3d a8 b2 18 3d 80 90 ce 3e
       -0.087354034 0.09674918 0.037279755 0.4034462
0000f0 98 08 69 bd 81 62 c9 3d 48 a1 c3 be 8f 7c c5 be
       -0.05689296 0.09833241 -0.38208985 -0.38571593
000100 f4 0e c8 3e b8 98 5f bc 5b 28 89 3b aa 2a c1 bd
       0.39073908 -0.013647251 0.004185719 -0.09431966
000110 41 bd b8 3d ce 62 b2 3d e8 e6 b7 3d 11 a3 33 be
       0.09020472 0.08710252 0.08979589 -0.17542674
000120 90 67 97 bc fa 16 90 be 71 2d ef 3d 5a e0 56 3e
       -0.018482 -0.2814253 0.11678589 0.20984021
000130 ef bf 79 3e c6 81 dd 3a 53 28 ac 3d 18 21 28 bd
       0.24389623 0.0016899637 0.08406129 -0.041047186
000140 7d de b2 3c 2c 5e 4c 3e 79 c7 e7 3c 64 ba 85 3e
       0.021834606 0.19957799 0.028293358 0.26118767
000150 32 ef af be ba 99 da be 77 8c 3c bd 93 4d 36 be
       -0.3436218 -0.4269541 -0.046032395 -0.1780303
000160 22 95 ae 3d 10 03 4f 3e 65 6e 89 3e f4 d9 d8 3d
       0.085245386 0.20216012 0.26842037 0.10588446
000170 3d 9b 85 bd f3 e8 1d be c3 96 7b 3e de 97 06 bd
       -0.0652375 -0.15420894 0.2456923 -0.032859676
000180 32 14 52 3e 7e a2 e9 bd 5d a0 06 bd ba 4c 4b 3c
       0.20515516 -0.11407946 -0.032867778 0.01240843
000190 26 6d c7 be 12 1f 94 bc c4 1b 26 3e 4b 26 c6 3d
       -0.3895046 -0.018081222 0.16221529 0.096752726
0001a0 be c5 ca 3d f7 87 9e be ae d9 0a 3f b1 61 56 be
       0.099009976 -0.30963108 0.542384 -0.20935704
0001b0 4f eb 15 3e 85 3e 07 3e 8e 67 ca bd f8 48 e7 bd
       0.14640544 0.13207443 -0.09883033 -0.112932146
0001c0 5c 1d 26 bd b3 fa 17 3d 62 92 33 3e 6a f5 8e 3e
       -0.040555343 0.03710432 0.1753631 0.2792161
0001d0 ea 03 94 3e 2f 48 96 bd 89 c9 d1 be d8 1f 98 bc
       0.28909236 -0.07337987 -0.40974072 -0.018569872
0001e0 d0 85 86 3d 09 7f 36 be 56 c7 a1 3d a2 b4 8e be
       0.065684915 -0.17821898 0.078993484 -0.27872187
0001f0 66 e8 98 bd 39 32 44 3d 48 7d b7 3e d1 01 c9 3e
       -0.074662015 0.04789946 0.3583777 0.39259198
000200 cd 53 69 be a7 bc 7f 3e 1d af aa bd 1a 89 02 3f
       -0.22785874 0.24974309 -0.083341815 0.5099045
000210 16 44 be 3d 47 aa 12 3d ef eb ed bd 52 08 ca 3e
       0.0929033 0.03580692 -0.116172664 0.39459473
000220 06 e5 4a bd 98 76 87 3e 3b 9b 76 3c 11 b3 b4 3e
       -0.04953482 0.26457667 0.015051658 0.35292867
000230 90 01 a4 be d9 b8 23 be 41 1f af bd fd a6 3c 3d
       -0.32032442 -0.15988483 -0.08550883 0.04605769
000240 2f ac e7 3e 96 d3 16 be 0e d6 1d be 9a 0d 32 bf
       0.45248553 -0.14729151 -0.15413687 -0.69552004
000250 0d 0b d4 3c db f9 7a 3e 46 f1 8c 3d e1 c9 e5 3e
       0.025884176 0.24509375 0.06881957 0.44880584
000260 14 d1 9d be a7 e1 eb bd f0 d8 4c 3e 6c 8b fc 3d
       -0.30823576 -0.11517649 0.2000463 0.1233128
000270 be c4 ac 3d 8a 84 02 3e df 61 31 3e e9 e3 19 bf
       0.08435963 0.12745872 0.17322491 -0.6011339
000280 d5 c2 78 3e db c7 7a ba 80 b2 bc bd 36 1e bb 3d
       0.24293073 -0.0009566524 -0.09213734 0.09136622
000290 5a 9e 7c be 1a cb da 3d 70 3b 86 3e 8e bf 8c 3c
       -0.24669781 0.1068327 0.26217222 0.017181184
0002a0 7f 02 e5 be a5 ac aa be 75 4d 90 be ff 25 79 be
       -0.44728467 -0.33334842 -0.28184095 -0.243309
0002b0 6a 20 25 3e 98 21 bf 3d 70 80 47 bd 01 de 43 be
       0.16125646 0.093325794 -0.048706472 -0.19127657
0002c0 d8 69 e9 bd 4e 7c 98 bc bc 30 12 3d 8f 46 ac be
       -0.11397141 -0.01861396 0.035691008 -0.33647582
0002d0 c6 08 53 be 22 81 84 be 17 85 83 be f8 b9 a6 bc
       -0.20608816 -0.2587977 -0.25687477 -0.020352349
0002e0 c1 a4 d0 bd 5b ff d7 be d0 47 95 bd 44 9f 7e be
       -0.10187674 -0.42187008 -0.07289088 -0.24865443
0002f0 c0 50 5e 3c ef 16 f4 3d 02 c7 6b 3e ff 94 9d 3e
       0.013569057 0.11918437 0.23025134 0.30777737
000300 27 52 ca be e5 7b 1c be 66 74 cf 3d 4a ef af 3d
       -0.39515802 -0.15281637 0.10129623 0.08590563
000310 7a db 52 3d a1 3f 89 be 51 a8 5f 3d f0 22 f2 3e
       0.05147884 -0.26806358 0.05460388 0.4729228
000320 c0 81 95 3e 00 bf b1 bb 4b bd d4 bd d8 88 8a be
       0.29200554 -0.0054243803 -0.10387667 -0.27057528
000330 e8 5b 1a be 5d 41 31 3e 6b 5b 1c bd 9b d1 07 be
       -0.15074122 0.1731009 -0.03817312 -0.13263552
000340 fa bb aa be f7 95 44 be 57 b5 5e be 6c c1 e1 bd
       -0.3334654 -0.19197832 -0.21748863 -0.110232204
000350 91 a8 4c 3e 76 1d fe 3e 5d 02 e3 3c 37 42 28 bd
       0.19986178 0.49631852 0.027711088 -0.041078772
000360 b3 aa 0a 3e 7d f1 36 3c ee 68 79 be 66 be fa bd
       0.13541679 0.011165974 -0.24356434 -0.12243347
000370 02 41 f0 3d 3f aa 21 3e 6c 3c c5 3d d2 c0 82 3e
       0.11731149 0.157876 0.09630665 0.25537735
000380 a4 14 69 be 88 02 8e bc 03 9a 1e 3d e0 0c d2 bc
       -0.2276178 -0.017335191 0.038721096 -0.025640905
000390 32 e9 87 3e c1 fb b3 3c 2a fd b7 3d 06 b2 46 bc
       0.265451 0.021970632 0.08983834 -0.012127405
0003a0 44 ce f7 bc 5f cb 59 3e a8 6f b5 be 52 54 64 3d
       -0.030249722 0.21268986 -0.3543675 0.055744477
0003b0 c8 78 15 be 3b c2 78 bb 90 fc d4 bd 16 d9 e5 3e
       -0.14596856 -0.0037957567 -0.10399735 0.44892186
0003c0 f0 9e 85 bd cf 20 41 3d 6b dc 59 be d1 7a 26 be
       -0.065244555 0.04715043 -0.21275489 -0.16257788
0003d0 45 1e 70 be 85 47 70 be af 4d 88 3e 90 67 bc 3d
       -0.23449047 -0.23464783 0.26621768 0.091994405
0003e0 8c 2e e8 3d fd 30 9b 3e a4 99 f1 3d bc 85 7f 3d
       0.11337003 0.30310813 0.11796883 0.0623834
0003f0 d0 dc 3c bd fa c4 be 3d ed 50 98 be e8 28 a0 be
       -0.04610902 0.09314914 -0.2974924 -0.3128121

bias f4 [4]
000000 14 75 43 be 10 68 88 bd 07 5f 98 3d 27 70 1d 3e
       -0.1908763 -0.06660473 0.0744 0.15374814
